…
 = models.resnet18(pretrained=False)\n        self.base_layers = list(self.base_model.children())\n\n        self.layer0 = nn.Sequential(*self.base_layers[:3])\n\n    def forward(self, x):\n        print(x.shape)\n\n        output = self.layer0(x)\n\n        return output\n\nbase_model = ResNetUNet().cuda()\nsummary(base_model,(3,224,224))\n\n```\n\nIs giving me:\n\n```\n----------------------------------------------------------------\n        Layer (type)               Output Shape         Param #\n================================================================\n            Conv2d-1         [-1, 64, 112, 112]           9,408\n            Conv2d-2         [-1, 64, 112, 112]           9,408\n       BatchNorm2d-3         [-1, 64, 112, 112]             128\n       BatchNorm2d-4         [-1, 64, 112, 112]             128\n              ReLU-5         [-1, 64, 112, 112]               0\n              ReLU-6         [-1, 64, 112, 112]               0\n================================================================\nTotal params: 19,072\nTrainable params: 19,072\nNon-trainable params: 0\n----------------------------------------------------------------\nInput size (MB): 0.57\nForward/backward pass size (MB): 36.75\nParams size (MB): 0.07\nEstimated Total Size (MB): 37.40\n----------------------------------------------------------------\n\n```\
…
 output_padding=1)\n```\n\nAs per the \ndocumentation\n:\n\nWhen stride > 1, \n\n```\nConv2d\n```\n\n maps multiple input shapes to the same output shape. \n\n```\noutput_padding\n```\n\n is provided to resolve this ambiguity by effectively increasing the calculated output shape on one side.\n\nDecoder layers' shapes before adding \n\n```\noutput_padding\n```\n\n:\n\n```\n----------------------------------------------------------------\n        Layer (type)               Output Shape         Param #\n================================================================\n   ConvTranspose2d-1        [-1, 512, 123, 155]      13,107,712\n              ReLU-2        [-1, 512, 123, 155]               0\n   ConvTranspose2d-3        [-1, 256, 249, 313]       3,277,056\n              ReLU-4        [-1, 256, 249, 313]               0\n   ConvTranspose2d-5        [-1, 128, 501, 629]         819,328\n              ReLU-6        [-1, 128, 501, 629]               0\n   ConvTranspose2d-7         [-1, 64, 503, 631]          73,792\n              ReLU-8         [-1, 64, 503, 631]               0\n   ConvTranspose2d-9         [-1, 32, 505, 633]          18,464\n             ReLU-10         [-1, 32, 505, 633]               0\n  ConvTranspose2d-11          [-1, 3, 507, 635]             867\n             ReLU-12          [-1, 3, 507, 635]               0\n\n```\n\nAfter adding padding:\n\n```\n================================================================\n   ConvTranspose2d-1        [-1, 512, 124, 156]      13,107,712\n              ReLU-2        [-1, 512, 124, 156]               0\n   ConvTranspose2d-3        [-1, 256, 251, 315]       3,277,056"}
{"instruction": "You are a PyTorch debugging assistant. Given an error message or problem description, explain the root cause and provide a fix.", "input": "Pytorch transforms.RandomRotation() does not work on Google Colab\n\nNormally i was working on letter&digit recognition on my computer and I wanted to move my project to Colab but unfortunately there was an error (you can see the error belo
…
