…
{"instruction": "You are a PyTorch debugging assistant. Given an error message or problem description, explain the root cause and provide a fix.", "input": "How do I print the model summary in PyTorch?\n\nHow do I print the summary of a model in PyTorch like what \nmodel.summary()\n does in Keras:\n\n\nModel Summary:\n____________________________________________________________________________________________________\nLayer (type)                     Output Shape          Param #     Connected to                     \n====================================================================================================\ninput_1 (InputLayer)             (None, 1, 15, 27)     0                                            \n____________________________________________________________________________________________________\nconvolution2d_1 (Convolution2D)  (None, 8, 15, 27)     872         input_1[0][0]                    \n____________________________________________________________________________________________________\nmaxpooling2d_1 (MaxPooling2D)    (None, 8, 7, 27)      0           convolution2d_1[0][0]            \n____________________________________________________________________________________________________\nflatten_1 (Flatten)              (None, 1512)          0           maxpooling2d_1[0][0]             \n____________________________________________________________________________________________________\ndense_1 (Dense)                  (None, 1)             1513        flatten_1[0][0]                  \n====================================================================================================\nTotal params: 2,385\nTrainable params: 2,385\nNon-trainable params: 0", "output": "Yes, you can get exact Keras representation, using the \npytorch-summary\n package.\n\n\nExample for VGG16:\n\n\nfrom torchvision import models\nfrom torchsummary import summary\n\nvgg = models.vgg16()\nsummary(vgg, (3, 224, 224))\n\n----------------------------------------------------------------\n        Layer (type)               Output Shape         Param #\n================================================================\n            Conv2d-1         [-1, 64, 224, 224]           1,792\n              ReLU-2         [-1, 64, 224, 224]               0\n            Conv2d-3         [-1, 64, 224, 224]          36,928\n              ReLU-4         [-1, 64, 224, 224]               0\n         MaxPool2d-5         [-1, 64, 112, 112]               0\n            Conv2d-6        [-1, 128, 112, 112]          73,856\n              ReLU-7        [-1, 128, 112, 112]               0\n            Conv2d-8        [-1, 128, 112, 112]         147,584\n              ReLU-9        [-1, 128, 112, 112]               0\n        MaxPool2d-10          [-1, 128, 56, 56]               0\n           Conv2d-11          [-1, 256, 56, 56]         295,168\n             ReLU-12          [-1, 256, 56, 56]               0\n           Conv2d-13          [-1, 256, 56, 56]         590,080\n             ReLU-14          [-1, 256, 56, 56]               0\n           Conv2d-15          [-1, 256, 56, 56]         590,080\n             ReLU-16          [-1, 256, 56, 56]               0\n        MaxPool2d-17          [-1, 256, 28, 28]               0\n           Conv2d-18          [-1, 512, 28, 28]       1,180,160\n             ReLU-19          [-1, 512, 28, 28]               0\n           Conv2d-20          [-1, 512, 28, 28]       2,359,808\n             ReLU-21          [-1, 512, 28, 28]               0\n           Conv2d-22          [-1, 512, 28, 28]       2,359,808\n             ReLU-23          [-1, 512, 28, 28]               0\n        MaxPool2d-24          [-1, 512, 14, 14]               0\n           Conv2d-25          [-1, 512, 14, 14]   "}
{"instruction": "You are a PyTorch debugging assistant. Given an error message or problem description, explain the root cause and provide a fix.", "input": "What&#39;s the difference between `reshape()` and `view()` in PyTorch?\n\nIn numpy, we use \nndarray.reshape()\n for reshaping an array.\n\n\nI noticed that in PyTorch, people use \ntorch.
…
 I am not sure how to get the output dimension for each layer (e.g. output dimension after the first layer).\n\n\nIs there an easy way to do this in Pytorch?", "output": "You can use torchsummary, for instance, for ImageNet dimension(3x224x224):\n\n\nfrom torchvision import models\nfrom torchsummary import summary\n\nvgg = models.vgg16()\nsummary(vgg, (3, 224, 224))\n\n\n----------------------------------------------------------------\n        Layer (type)               Output Shape         Param #\n================================================================\n            Conv2d-1         [-1, 64, 224, 224]           1,792\n              ReLU-2         [-1, 64, 224, 224]               0\n            Conv2d-3         [-1, 64, 224, 224]          36,928\n              ReLU-4         [-1, 64, 224, 224]               0\n         MaxPool2d-5         [-1, 64, 112, 112]               0\n            Conv2d-6        [-1, 128, 112, 112]          73,856\n              ReLU-7        [-1, 128, 112, 112]               0\n            Conv2d-8        [-1, 128, 112, 112]         147,584\n              ReLU-9        [-1, 128, 112, 112]               0\n        MaxPool2d-10          [-1, 128, 56, 56]               0\n           Conv2d-11          [-1, 256, 56, 56]         295,168\n             ReLU-12          [-1, 256, 56, 56]               0\n           Conv2d-13          [-1, 256, 56, 56]         590,080\n             ReLU-14          [-1, 256, 56, 56]               0\n           Conv2d-15          [-1, 256, 56, 56]         590,080\n             ReLU-16          [-1, 256, 56, 56]               0\n        MaxPool2d-17          [-1, 256, 28, 28]               0\n           Conv2d-18          [-1, 512, 28, 28]       1,180,160\n             ReLU-19          [-1, 512, 28, 28]               0\n           Conv2d-20          [-1, 512, 28, 28]       2,359,808\n             ReLU-21          [-1, 512, 28, 28]               0\n           Conv2d-22          [-1, 512, 28, 28]       2,359,808\n             ReLU-23          [-1, 512, 28, 28]               0\n        MaxPool2d-24          [-1, 512, 14, 14]               0\n           Conv2d-25          [-1, 512, 14, 14]       2,359,808\n             "}
{"instruction": "You are a PyTorch debugging assistant. Given an error message or problem description, explain the root cause and provide a fix.", "input": "How to use PyTorch multiprocessing?\n\nI'm trying to use python's multiprocessing \nPool\n method in \npytorch\n to process a image. Here's the code:\n\n\nfrom multiprocessing import Process, Pool\nfrom torch.autograd import 
…
2, kernel_size=(3, 3), padding='SAME', activation='relu', input_shape=(IMG_SIZE, IMG_SIZE, 1))(inputs)\nmodel = BatchNormalization(momentum=0.15, axis=-1)(model)\nmodel = Flatten()(model)\n\ndense = Dense(100, activation = \"relu\")(model)\nhead_root = Dense(10, activation = 'softmax')(dense)\n\n\n\nAnd the summary printed for above model is:\n\n\nModel: \"model_8\"\n_________________________________________________________________\nLayer (type)                 Output Shape              Param #   \n=================================================================\ninput_9 (InputLayer)         (None, 64, 64, 1)         0         \n_________________________________________________________________\nconv2d_10 (Conv2D)           (None, 64, 64, 32)        320       \n_________________________________________________________________\nbatch_normalization_2 (Batch (None, 64, 64, 32)        128       \n_________________________________________________________________\nflatten_3 (Flatten)          (None, 131072)            0         \n_________________________________________________________________\ndense_11 (Dense)             (None, 100)               13107300  \n_________________________________________________________________\ndense_12 (Dense)             (None, 10)                1010      \n=================================================================\nTotal params: 13,108,758\nTrainable params: 13,108,694\nNon-trainable params: 64\n_________________________________________________________________\n\n\n\nHere's the implementation of the same model archi", "output": "Keras treats as parameters (weights) many things that will be \"saved/loaded\" in the layer. \n\n\nWhile bo
…
el = models.resnet18(pretrained=False)\n        self.base_layers = list(self.base_model.children())\n\n\n        self.layer0 = nn.Sequential(*self.base_layers[:3])\n\n\n    def forward(self, x):\n        print(x.shape)\n\n        output = self.layer0(x)\n\n        return output\n\nbase_model = ResNetUNet().cuda()\nsummary(base_model,(3,224,224))\n\n\n\nIs giving me:\n\n\n----------------------------------------------------------------\n        Layer (type)               Output Shape         Param #\n================================================================\n            Conv2d-1         [-1, 64, 112, 112]           9,408\n            Conv2d-2         [-1, 64, 112, 112]           9,408\n       BatchNorm2d-3         [-1, 64, 112, 112]             128\n       BatchNorm2d-4         [-1, 64, 112, 112]             128\n              ReLU-5         [-1, 64, 112, 112]               0\n              ReLU-6         [-1, 64, 112, 112]               0\n================================================================\nTotal params: 19,072\nTrainable params: 19,072\nNon-trainable params: 0\n----------------------------------------------------------------\nInput size (MB): 0.57\nForward/backward pass size (MB): 36.75\nParams size (MB): 0.07\nEstimated Total Size (MB): 37.40\n----------------------------------------------------------------\n\n\n\n
…
 = Sequential()\n    model.add(Conv2D(64, (3, 3), input_shape=img_size))\n    model.add(BatchNormalization(axis=1))\n    model.add(Activation('relu'))\n    model.add(Dropout(0.3))\n    model.add(Conv2D(64, (3, 3), padding='same'))\n    model.add(BatchNormalization(axis=1))\n    model.add(Activation('relu'))\n    model.add(MaxPooling2D(pool_size=(2,2), strides=(2,2), padding='same'))\n\n\n\nWhich produces the following summary: \n\n\nLayer (type)                 Output Shape              Param #   \n=================================================================\nconv2d_1 (Conv2D)            (None, 30, 30, 64)        1792      \n_________________________________________________________________\nbatch_normalization_1 (Batch (None, 30, 30, 64)        120       \n_________________________________________________________________\nactivation_1 (Activation)    (None, 30, 30, 64)        0         \n_________________________________________________________________\ndropout_1 (Dropout)          (None, 30, 30, 64)        0         \n_________________________________________________________________\nconv2d_2 (Conv2D)            (None, 30, 30, 64)        36928     \n_________________________________________________________________\nbatch_normalization_2 (Batch (None, 30, 30, 64)        120       \n_________________________________________________________________\nactivation_2 (Activation)    (None, 30, 30, 64)        0         \n_________________________________________________________________\nmax_pooling2d_1 (MaxPooling2 (None, 15, 15, 64)        0         \n=================================================================\nTotal params: 38,960\nTrainable params: 38,840\nNon-trainable params: 120\n\n\n\nRight now, I would write: \n\n\nself.features = nn.Sequential(\n            nn.Conv2d(3, 64, kernel_size=3,\n                      bias", "output": "W:input volume size\n\n\nF:kernel size\n\n\nS:stride\n\n\nP:amount of padding\n\n\nsize of output volume = (W-F+2P)/S+1\n\n\ne.g.\n\n\ninput:7x7, kernel:3x3, stride:1, pad:0\n\n\noutput size = (7-3+2*0)/1+1 = 5 =>5x5"}
…
nels=128,kernel_size=5,stride=2, output_padding=1)\n\n\nAs per the \ndocumentation\n:\n\n\n\n\nWhen stride > 1, \nConv2d\n maps multiple input shapes to the same output shape. \noutput_padding\n is provided to resolve this ambiguity by effectively increasing the calculated output shape on one side.\n\n\n\n\n\n\nDecoder layers' shapes before adding \noutput_padding\n:\n\n\n----------------------------------------------------------------\n        Layer (type)               Output Shape         Param #\n================================================================\n   ConvTranspose2d-1        [-1, 512, 123, 155]      13,107,712\n              ReLU-2        [-1, 512, 123, 155]               0\n   ConvTranspose2d-3        [-1, 256, 249, 313]       3,277,056\n              ReLU-4        [-1, 256, 249, 313]               0\n   ConvTranspose2d-5        [-1, 128, 501, 629]         819,328\n              ReLU-6        [-1, 128, 501, 629]               0\n   ConvTranspose2d-7         [-1, 64, 503, 631]          73,792\n              ReLU-8         [-1, 64, 503, 631]               0\n   ConvTranspose2d-9         [-1, 32, 505, 633]          18,464\n             ReLU-10         [-1, 32, 505, 633]               0\n  ConvTranspose2d-11          [-1, 3, 507, 635]             867\n             ReLU-12          [-1, 3, 507, 635]               0\n\n\n\nAfter adding padding:\n\n\n================================================================\n   ConvTranspose2d-1        [-1, 512, 124, 156]      13,107,712\n              ReLU-2        [-1, 512, 124, 156]               0\n   ConvTranspose2d-3        [-1, 256, 251, 315]       3,277,056\n              ReLU-4        [-1, 256, 251, 315]               0\n   "}
{"instruction": "You are a PyTorch debugging assistant. Given an error message or problem description, explain the root cause and provide a fix.", "input": "Pytorch transforms.RandomRotation() does not work on Google Colab\n\nNormally i was working on letter&digit recognition on my computer and I wanted to move my project to Colab but unfortunately there was an error (you can see the error
…
