…
s\", \"classifier.fc2.weight\", \"classifier.fc2.bias\", \"classifier.fc3.weight\", \"classifier.fc3.bias\". \n`\n\nThis is my `model.state_dict().keys()`:\n\n`odict_keys(['features.0.weight', 'features.0.bias', 'features.3.weight', \n'features.3.bias', 'features.6.weight', 'features.6.bias', \n'features.8.weight', 'features.8.bias', 'features.10.weight', \n'features.10.bias', 'classifier.fc1.weight', 'classifier.fc1.bias', \n'classifier.fc2.weight', 'classifier.fc2.bias', 'classifier.fc3.weight', \n'classifier.fc3.bias'])\n`\n\nThis is my model:\n\n`AlexNet(\n  (features): Sequential(\n    (0): Conv2d(3, 64, kernel_size=(11, 11), stride=(4, 4), padding=(2, 2))\n    (1): ReLU(inplace)\n    (2): MaxPool2d(kernel_size=3, stride=2, padding=0, dilation=1, ceil_mode=False)\n    (3): Conv2d(64, 192, kernel_size=(5, 5), stride=(1, 1), padding=(2, 2))\n    (4): ReLU(inplace)\n    (5): MaxPool2d(kernel_size=3, stride=2, padding=0, dilation=1, ceil_mode=False)\n    (6): Conv2d(192, 384, kernel_size=(3, 3), stride=(1, 1), padding=(1, 1))\n    (7): ReLU(inplace)\n    (8): Conv2d(384, 256, kernel_size=(3, 3), stride=(1, 1), padding=(1, 1))\n    (9): ReLU(inplace)\n    (10): Conv2d(256, 256, kernel_size=(3, 3), stride=(1, 1), padding=(1, 1))\n    (11): ReLU(inplace)\n    (12): MaxPool2d(kernel_size=3, stride=2, padding=0, dilation=1, ceil_mode=False)\n\n((classifier): Sequential(\n(fc1): Linear(in_features=9216, out_features=4096, bias=True)\n(relu1): ReLU()\n(fc2): Linear(in_features=4096, out_features=1000, bias=True)\n(relu2): ReLU()\n(fc3): Linear(in_features=1000, out_features=102, bias=True)\n(output): LogSoftmax()\n)\n)\n`\n\nIt's my first network ever and I'm blundering along. Thanks for steering me into right direction!", "error_text": "RuntimeError: Error(s) in loading state_dict for Network:", "code_context": "AlexNet(\n  (features): Sequential(\n    (0): Conv2d(3, 64, kernel_size=(11, 11), stride=(4, 4), padding=(2, 2))\n    (1): ReLU(inplace)\n    (2): MaxPool2d(kernel_size=3, stride=2, padding=0, dilation=1, ceil_mode=False)\n    (3): Conv2d(64, 192, kernel_size=(5, 5), stride=(1, 1), padding=(2, 2))\n    (4): ReLU(inplace)\n    (5): MaxPool2d(kernel_size=3, stride=2, padding=0, dilation=1, ceil_mode=False)\n    (6): Conv2d(192, 384, kernel_size=(3, 3), stride=(1, 1), padding=(1, 1))\n    (7): ReLU(inplace)\n    (8): Conv2d(384, 256, kernel_size=(3, 3), stride=(1, 1), padding=(1, 1))\n    (9): ReLU(inplace)\n    (10): Conv2d(256, 256, kernel_size=(3, 3), stride=(1, 1), padding=(1, 1))\n    (11): ReLU(inplace)\n    (12): MaxPool2d(kernel_size=3, stride=2, padding=0, dilation=1, ceil_mode=False)\n\n((classifier): Sequential(\n(fc1): Linear(in_features=9216, out_features=4096, bias=True)\n(relu1): ReLU()\n(fc2): Linear(in_features=4096, out_features=1000, bias=True)\n(relu2): ReLU()\n(fc3): Linear(in_features=1000, out_features=102, bias=True)\n(output): LogSoftmax()\n)\n)"}, "output": {"category": "architecture_mismatch", "root_cause": "So your `Network` is essentially the `classifier` part of `AlexNet` and you're looking to load pretrained `AlexNet` weights into it.", "fix": "You want to Keep only the tensors with name starting with \"classifier.\" Remove the \"classifier.\" part of keys so try", "fix_code": "model = Network()\nloaded_dict = checkpoint['model_state_dict']\nprefix = 'classifier.'\nn_clip = len(prefix)\nadapted_dict = {k[n_clip:]: v for k, v in loaded_dict.items()\n                if k.startswith(prefix)}\nmodel.load_state_dict(adapted_dict)"}}
…
and for many epochs without augmenting first, say one-two.", "fix": "Furthermore it's easier to debug it that way. I'm not sure about the weights idea, maybe try to upsample underrepresented classes in order to make it more balanced (repeat some underrepresented examples in your dataset).", "fix_code": ""}}
{"id": "so_53784998", "source": "stackoverflow", "source_url": "https://stackoverflow.com/questions/53784998", "input": {"question_title": "How are the pytorch dimensions for linear layers calculated?", "question_body": "In the PyTorch tutorial, the constructed network is\n\n`Net(\n  (conv1): Conv2d(1, 6, kernel_size=(5, 5), stride=(1, 1))\n  (conv2): Conv2d(6, 16, kernel_size=(5, 5), stride=(1, 1))\n  (fc1): Linear(in_features=400, out_features=120, bias=True)\n  (fc2): Linear(in_features=120, out_features=84, bias=True)\n  (fc3): Linear(in_features=84, out_features=10, bias=True)\n)\n`\n\nAnd used to process images with dimensions `1x32x32`. They mention, that the network cannot be used with images with a different size.\n\nThe two convolutional layers seem to allow for an arbitrary number of features, so the linear layers seem to be related to getting the `32x32` into into `10` final features.\n\nI do not really understand, how the numbers `120` and `84` are chosen there and why the result matches with the input dimensions.\n\nAnd when I try to construct a similar network, I actually get the problem with the dimension of the data.\n\nWhen I for example use a simpler network:\n\n`Net(\n  (conv1): Conv2d(3, 8, kernel_size=(5, 5), stride=(1, 1))\n  (conv2): Conv2d(8, 16, kernel_size=(5, 5), stride=(1, 1))\n  (fc1): Linear(in_features=400, out_features=3, bias=True)\n)\n`\n\nfor an input of the size `3x1200x800`, I get the error message:\n\n`RuntimeError: size mismatch, m1: [1 x 936144], m2: [400 x 3] at /pytorch/aten/src/TH/generic/THTensorMath.cpp:940\n`\n\nWhere does the number `936144` come from and how do I need to design the network, such that the dimensions are matching?", "error_text": "RuntimeError: size mismatch, m1: [1 x 936144], m2: [400 x 3] at /pytorch/aten/src/TH/generic/THTensorMath.cpp:940", "code_context": "Net(\n  (conv1): Conv2d(1, 6, kernel_size=(5, 5), stride=(1, 1))\n  (conv2): Conv2d(6, 16, kernel_size=(5, 5), stride=(1, 1))\n  (fc1): Linear(in_features=400, out_features=120, bias=True)\n  (fc2): Linear(in_features=120, out_features=84, bias=True)\n  (fc3): Linear(in_features=84, out_features=10, bias=True)\n)"}, "output": {"category": "tensor_shape_mismatch", "root_cause": "The key step is between the last convolution and the first `Linear` block. `Conv2d` outputs a tensor of shape `[batch_size, n_features_conv, height, width]` whereas `Linear` expects `[batch_size, n_features_lin]`.", "fix": "To make the two align you need to \"stack\" the 3 dimensions `[n_features_conv, height, width]` into one `[n_features_lin]`. As follows, it must be that `n_features_lin == n_features_conv * height * width`.", "fix_code": "x = x.view(-1, self.num_flat_features(x))"}}
…
